models/fine_tuned/checkpoint-4000/adapter_model.safetensors (safetensors, 316456 bytes, 25 tensors)

base_model.model.score.weight f4 [6, 768]
0	0x3d8f2712	0.06989874
1	0xbcee8974	-0.029118277
2	0x3c72e70a	0.014825592
3	0xbc556791	-0.01302518
4	0x3c9f5119	0.01944785
5	0xba66baff	-0.00088016683
6	0x3cb7f237	0.022454364
7	0xbdda706c	-0.10665974
8	0xbd290b97	-0.04127082
9	0xbdb52de8	-0.088466465
10	0xbdb08dec	-0.086208194
11	0x3d98a8e0	0.07454085
12	0xbd8b89a7	-0.068133645
13	0xbcfb91ab	-0.030709108
14	0xbd31c610	-0.043401778
15	0xbd450902	-0.048104294
16	0x3be115ac	0.0068690386
17	0x3d49d043	0.04927088
18	0xbb37db53	-0.0028054311
19	0x3c367b84	0.011137847
20	0x3d843520	0.06455445
21	0x3c3016a5	0.010747586
22	0xbd8b4e2d	-0.0680202
23	0xbd7ba6d0	-0.06143838
24	0x3dc908ac	0.09816107
25	0x3c7e47ca	0.0155200455
26	0xbb88baf0	-0.0041726753
27	0xbc9dd690	-0.01926735
28	0xbd04eef2	-0.03245444
29	0x3cb444b8	0.022005424
30	0xbe170c88	-0.14750874
31	0x3cf39676	0.029734831
32	0x3c9dc330	0.019258112
33	0xbd5869df	-0.05283534
34	0x3e234c38	0.15947044
35	0xbd4a096a	-0.049325384
36	0x3c3c7c8a	0.011504302
37	0x3e22ff57	0.15917717
38	0xbd4d1d42	-0.05007673
39	0xbd4bf843	-0.049797308
40	0x3c5fea1a	0.013666654
41	0xbdd042e6	-0.1016901
42	0xbcfaf1d1	-0.030632885
43	0x3cc5b918	0.024136111
44	0xbdbc4793	-0.09193339
45	0xbc7df70b	-0.015500794
46	0x3cb8068e	0.022464063
47	0x3bc16a34	0.005902553
48	0x3da3fc91	0.080071576
49	0x3d4af032	0.049545474
50	0xbddf2c8c	-0.108971685
51	0x3dce6249	0.1007734
52	0xbd746f59	-0.059676502
53	0x3c2277b7	0.009916238
54	0xbd2aee10	-0.04173094
55	0x3c1bebb5	0.009516646
56	0xbdad1872	-0.08451928
57	0x3d2190be	0.039444678
58	0x3dd39dbd	0.103328206
59	0x3d9a3491	0.075295575
60	0xbc2ec8e0	-0.0106680095
61	0x3e03a339	0.12855233
62	0xbde5ca84	-0.112202674
63	0x3c19aef0	0.009380087
64	0x3d086d6f	0.03330749
65	0x3ad7f2da	0.0016475574
66	0xbc9b6774	-0.018970229
67	0x3d003e25	0.031309266
68	0xbd5b4c5d	-0.053539623
69	0x3d5ad6ca	0.053427495
70	0xbb87ca44	-0.004143985
71	0xbdbe64b0	-0.09296548
72	0x3c80e464	0.015733905
73	0x3d73a864	0.05948676
74	0xbc356f0d	-0.01107384
75	0xbd80b3c2	-0.06284286
76	0xbdb90fd9	-0.09036226
77	0x3cae553b	0.021280875
78	0x3e0677e8	0.13131678
79	0xbdd328ac	-0.10310492
80	0x3c0995f6	0.00839757
81	0x3c765ffa	0.015037531
82	0xbd9512b5	-0.07278959
83	0x3e15198a	0.14560524
84	0x3d8147a9	0.06312496
85	0xbda42080	-0.080140114
86	0x3b5989f9	0.003319381
87	0xbca50b78	-0.02014707
88	0xbe2729af	-0.16324495
89	0xbe02aa3d	-0.12760253
90	0xbd844825	-0.06459073
91	0x3dc3c4df	0.095590346
92	0xbb1f654c	-0.0024321852
93	0xbb57bda7	-0.0032919438
94	0xbd378bcd	-0.04481106
95	0xbb0dd394	-0.0021641003
96	0xbd887b2c	-0.06664118
97	0xbd9728fe	-0.073808655
98	0xba9f045b	-0.0012132035
99	0x3c93f9aa	0.018063385
100	0x3df02b2f	0.117269866
101	0xbc82620b	-0.015915891
102	0xbb62f314	-0.003462975
103	0x3db10f64	0.08645514
104	0xbc76f820	-0.015073806
105	0xbdc9c505	-0.098520316
106	0x3e0cc012	0.13745144
107	0x3d2fe264	0.042940512
108	0xbd3dfb9e	-0.04638254
109	0x3d7c6246	0.06161716
110	0x3c154936	0.009111693
111	0x3c58a624	0.013223205
112	0xbbf39342	-0.007433326
113	0xbd3f10c3	-0.046646845
114	0x3d94922f	0.07254445
115	0xbdf24bad	-0.1183084
116	0x3d9d59a3	0.076831125
117	0x3bd79fa9	0.0065803123
118	0xbcb5a0ac	-0.02217134
119	0xbd42b155	-0.0475324
120	0xbcc3eaa3	-0.023915594
121	0xbce73e6b	-0.028228005
122	0xbda90c27	-0.08254271
123	0x3c96e246	0.018418442
124	0x3d4976e5	0.049185652
125	0xbdfeef6c	-0.1244801
126	0x3cc2c962	0.023777667
127	0x3d19fbf2	0.03759379
128	0xbc989865	-0.018627355
129	0x3cafebba	0.021474708
130	0xbdcc9b13	-0.099905156
131	0x3d21c90c	0.039498374
132	0xbc1fa2c7	-0.009743399
133	0x3cdf1903	0.027233606
134	0xbe193023	-0.14959769
135	0xbc6d20f9	-0.014473193
136	0xbc299a65	-0.010351752
137	0x3cfaea26	0.030629229
138	0x3bbd9f78	0.0057868324
139	0x3d548ac3	0.051890146
140	0x3b8075f5	0.0039203116
141	0xbc9f4120	-0.019440234
142	0x3c9c7216	0.01909737
143	0xbbbedbd8	-0.0058245473
144	0x3d39ee7e	0.04539346
145	0xbb9ec384	-0.0048450846
146	0x3c7b9aa5	0.015356694
147	0xbb27a84a	-0.0025582486
148	0x3b390667	0.0028232576
149	0xbd24bea4	-0.04022087
150	0x3d854c5c	0.06508705
151	0xbcf5c3d3	-0.030000603
152	0xbcd549e6	-0.026036214
153	0xbd0999e7	-0.03359404
154	0xbce4e7b2	-0.027942512
155	0x3d0a1433	0.03371067
156	0x3d9c6de8	0.076381505
157	0x3cab2b10	0.020894557
158	0x3d9a2f78	0.07528585
159	0x3d85511c	0.06509611
160	0xbc884498	-0.01663427
161	0x3d859fbd	0.06524608
162	0xbdba5ae3	-0.090993665
163	0x3d2ff7fa	0.0429611
164	0xbd16cb26	-0.03681483
165	0xbc4af4b8	-0.012387447
166	0x3ddc63a0	0.107611895
167	0xbd487ac5	-0.048945207
168	0xbd99fe50	-0.075192094
169	0x3daf4c5b	0.085594855
170	0xbd7e78fd	-0.062127102
171	0x3ce8869a	0.028384496
172	0x3d980346	0.07422499
173	0xbd605027	-0.05476394
174	0x3da34faf	0.07974183
175	0x3d4f2d00	0.050580025
176	0xbd154c08	-0.036449462
177	0xbca4922f	-0.020089237
178	0x3c2aaffd	0.010417935
179	0xbda8c3b7	-0.08240455
180	0xbe2d0530	-0.1689651
181	0xbd87681d	-0.06611655
182	0xbd819fa5	-0.06329278
183	0xbd38dad2	-0.04513056
184	0x3d761dbb	0.060086947
185	0x3cad37a0	0.021144688
186	0x3c17f3ba	0.009274418
187	0x3d1ccfc2	0.03828407
188	0xbc8091c3	-0.015694505
189	0xbb3d6e8e	-0.0028905007
190	0x3c34b4d9	0.011029446
191	0x3d5675f0	0.052358568
192	0xbd049798	-0.032371134
193	0xbe30fe52	-0.17284516
194	0xbe2c9c7f	-0.16856574
195	0xbd296a02	-0.041360863
196	0xbd3b3905	-0.045708675
197	0xbd1187cb	-0.035529893
198	0xbd1ffaef	-0.03905767
199	0xbbd9dbad	-0.006648502
200	0xbc76b45c	-0.015057649
201	0xbd4b22c8	-0.049593717
202	0xbce79633	-0.028269863
203	0xbbb06f31	-0.005384349
204	0xbd54dc25	-0.05196776
205	0x3cdf3799	0.02724819
206	0x3db708c2	0.08937217
207	0xbcbe1804	-0.02320481
208	0xbd5653d9	-0.052326057
209	0xbde1cfaf	-0.110259406
210	0x3d9275cf	0.071513765
211	0x3d3d0902	0.04615117
212	0xbbe2cd10	-0.006921418
213	0xbd76e709	-0.060278926
214	0x3d9865b6	0.07441275
215	0x3c00e55e	0.007867185
216	0xbd7e810d	-0.06213479
217	0x3d6375e7	0.055532362
218	0xbc0bacab	-0.008525054
219	0xbce4ad27	-0.027914597
220	0xbca33c8b	-0.01992633
221	0xbce2a5a2	-0.02766687
222	0xbdb18b9f	-0.08669209
223	0xbd226492	-0.039646693
224	0x3d1bf13c	0.038071856
225	0x3da325a5	0.079661645
226	0xbd1bc409	-0.03802875
227	0x3d164810	0.036689818
228	0x3d920f3d	0.07131813
229	0x3b922581	0.004460037
230	0xbc395c38	-0.011313491
231	0x3bf0d00a	0.007349019
232	0xbd5e1bc1	-0.054225687
233	0xbc847a06	-0.016171467
234	0x3d5100ee	0.051026277
235	0x3c30d154	0.010792095
236	0x3c2ff40e	0.0107393395
237	0x3cc4a03b	0.024002185
238	0x3d0cd581	0.0343833
239	0x3db2dc8e	0.08733474
240	0xbdffe287	-0.124943785
241	0x3d25acbf	0.040447947
242	0xbba6bc93	-0.005088398
243	0x3dc464c7	0.09589534
244	0x3c901696	0.017588895
245	0x3d502977	0.050820794
246	0x3cffbf33	0.0312191
247	0x3d831803	0.06401064
248	0x3d6ad636	0.057333194
249	0xbce63b02	-0.028104309
250	0x3c8b1eb7	0.01698242
251	0x3c532081	0.0128861675
252	0xbd47198e	-0.048608355
253	0xbdd9985c	-0.10624763
254	0xbb0972be	-0.0020972933
255	0xbaa969fe	-0.0012925265

base_model.model.transformer.h.0.attn.c_attn.lora_A.weight f4 [2, 768]
0	0x3d5e36bf	0.05425143
1	0x3b97e733	0.0046357154
2	0x3b9c504e	0.0047703153
3	0x3c539318	0.012913488
4	0xba026205	-0.00049737125
5	0xbcc6a834	-0.024250127
6	0xbcdc715e	-0.026909526
7	0xbde9dbf9	-0.114189096
8	0x3ddaba8c	0.10680112
9	0xbe39334d	-0.18085976
10	0xbc570c00	-0.01312542
11	0x3d0e19b6	0.03469249
12	0xbd96563d	-0.073406674
13	0x3de0e3ed	0.109809734
14	0x3d174743	0.036933195
15	0xbd102454	-0.035190895
16	0xbcb3dd2b	-0.021956047
17	0x3cb2debf	0.02183473
18	0xbd9d76ee	-0.076887
19	0x3d199b91	0.037501875
20	0xbd1e7e15	-0.03869446
21	0x3d90d6e5	0.07072238
22	0xbdf6f09e	-0.12057613
23	0x3d9918d5	0.074754395
24	0xbdc099bd	-0.09404323
25	0xbd908329	-0.07056267
26	0xbcb7fe61	-0.022460165
27	0x3d3f7d99	0.04675064
28	0xbde122ee	-0.109929904
29	0xbc1bfb79	-0.009520405
30	0xbdb19d24	-0.0867255
31	0x3c5deb26	0.013544833
32	0xbd937cc1	-0.07201529
33	0x3d121cb6	0.035671912
34	0xbd6ec09b	-0.05828915
35	0x3d478098	0.04870662
36	0xbd29fd4f	-0.04150134
37	0x3c7fc6fb	0.0156114055
38	0x3cae5da1	0.02128488
39	0x3e4d4d9e	0.2004914
40	0xbd66c4b3	-0.05633993
41	0xbd5bafc2	-0.053634413
42	0x3d0cfabb	0.034418803
43	0x3d88a75c	0.06672546
44	0x3dfeaade	0.12434934
45	0x3e0249dd	0.12723489
46	0xbc9e4054	-0.019317783
47	0x3d8fae73	0.070156954
48	0x3c45b094	0.012066025
49	0xbd1fdfcb	-0.039031785
50	0x3b27edd3	0.0025623932
51	0xbd4fd8ef	-0.050743993
52	0x3d65ea63	0.05613173
53	0x3d8b934e	0.068152055
54	0xbb44a98c	-0.0030008284
55	0x3bf1c64b	0.0073783747
56	0xbd1723f3	-0.03689952
57	0xbd2481f1	-0.040162984
58	0xbdb5916c	-0.08865628
59	0xbd36ca68	-0.044626623
60	0x3e1e327e	0.15448949
61	0xbdf15227	-0.117832474
62	0xbce7b643	-0.028285151
63	0x3d7e7c34	0.062130168
64	0xb9878036	-0.0002584473
65	0xbde54dc4	-0.11196473
66	0x3d1fb605	0.038991947
67	0xbcbdc523	-0.023165291
68	0xbd54e86d	-0.05197947
69	0x3cd541c6	0.02603234
70	0xbc887cff	-0.016661165
71	0x3c85af10	0.016318828
72	0x3c1fe8f8	0.009760134
73	0xbdd73002	-0.10507204
74	0x3cc93330	0.02456054
75	0xbd0baa84	-0.034098163
76	0x3daab410	0.083351254
77	0x3cbe6e9f	0.023246108
78	0xbd9d3ed9	-0.07678003
79	0x3d810222	0.06299235
80	0x3d0fd7ba	0.035117842
81	0x3da3ed89	0.080042906
82	0xbccec4f6	-0.025240403
83	0x3db32e6c	0.08749089
84	0xbb1cf35d	-0.0023948767
85	0x3d05340b	0.032520335
86	0xbc340272	-0.010986911
87	0x3c508ba3	0.0127286045
88	0xbd41caf5	-0.047312696
89	0x3d3927d6	0.045204006
90	0xbcbaedce	-0.022818472
91	0xbd8bf004	-0.06832889
92	0x3d54fb4c	0.051997468
93	0xbc364f15	-0.011127253
94	0x3d47af8a	0.04875139
95	0xbdfef2d0	-0.124486566
96	0x3daaa120	0.083315134
97	0x3dc4a184	0.09601119
98	0xbdfb8164	-0.12280539
99	0xbd89b894	-0.067246586
100	0x3d50ae26	0.05094733
101	0xbe203abe	-0.15647408
102	0xb9eee73c	-0.0004556718
103	0x3de110f7	0.10989564
104	0x3d1d2149	0.03836182
105	0xbe280c06	-0.16410837
106	0xbe2aebb5	-0.16691478
107	0xbc1660c7	-0.009178347
108	0xbd274fbb	-0.04084752
109	0x3d89dcf9	0.067316
110	0x3d0347d1	0.03205091
111	0xbd23449e	-0.03986036
112	0x3e2666c2	0.16250136
113	0xbd1bbaac	-0.03801982
114	0xbca12337	-0.019670112
115	0x3cb2c020	0.021820128
116	0xbd420f42	-0.047377832
117	0x3d39972c	0.045310184
118	0xbdacdc40	-0.08440447
119	0xbc93bb59	-0.01803367
120	0x3ce8d727	0.028422905
121	0xbc2f5b35	-0.010702898
122	0x3d59feb4	0.05322142
123	0x3c77e655	0.015130599
124	0x3cb807aa	0.022464592
125	0xbd83a4ba	-0.064279035
126	0x3c048e2c	0.008090537
127	0x3c6ade4f	0.014335229
128	0x3aebc39d	0.0017987374
129	0xbdafbd89	-0.08581073
130	0x3d5a8a72	0.053354688
131	0xbd95adfd	-0.07308576
132	0x3ca65e79	0.02030872
133	0x3de48a9f	0.111592524
134	0x3dbaa0a8	0.09112674
135	0x3d76aca2	0.06022323
136	0x3dcacfc7	0.09902912
137	0x3dc9b81a	0.09849568
138	0xbca0c112	-0.019623313
139	0xbc8af823	-0.016964024
140	0x3a5c2403	0.00083977
141	0xbabecf34	-0.0014557601
142	0x3d367bbd	0.0445516
143	0xbc73f65c	-0.01489028
144	0xb875c15a	-5.8592625e-05
145	0x3d72f097	0.059311476
146	0x3cfda388	0.030961767
147	0x3c7140d1	0.014724926
148	0x3d051ffc	0.032501206
149	0xbc4439c8	-0.011976667
150	0xbd2d4665	-0.04230346
151	0x3cfb1d63	0.030653661
152	0xbc760bdd	-0.015017477
153	0xb97f0da1	-0.00024323772
154	0xbd420eb4	-0.047377303
155	0x3d9a630d	0.07538424
156	0xbd500b20	-0.05079186
157	0x3c5e7244	0.013577048
158	0xbc0d3f47	-0.0086210435
159	0xbdb037b4	-0.086043745
160	0xbddf8f2a	-0.10915978
161	0xbdc78267	-0.09741669
162	0x3d8cdeae	0.0687841
163	0x3e42398f	0.1896727
164	0xbc737e10	-0.014861599
165	0xbdf934e7	-0.121682934
166	0xbd7f5446	-0.06233623
167	0x3d57749b	0.052601438
168	0xbdf7bd4f	-0.120966546
169	0xbda7059f	-0.08155369
170	0x3c10d61e	0.008840112
171	0x3cbb5128	0.022865847
172	0x3d9f68d0	0.07783663
173	0x3c835b7a	0.01603483
174	0xbe216029	-0.15759338
175	0xbd471f0b	-0.04861359
176	0x3c0d6cc1	0.008631886
177	0xbdce6454	-0.1007773
178	0xbcf63946	-0.030056607
179	0xbc8c399b	-0.017117312
180	0x3bdb9bb9	0.006701913
181	0xbd8f2d3a	-0.06991048
182	0xbaa11151	-0.0012288486
183	0xbd0a3f61	-0.03375185
184	0x3de3f0ed	0.11129937
185	0x3d5275ad	0.051381756
186	0x3d9d464c	0.07679424
187	0x3d0a8cbc	0.03382562
188	0xbd54ee7b	-0.051985245
189	0xbdd4b175	-0.1038541
190	0xbde803cc	-0.11328849
191	0x3d8dbc17	0.06920641
192	0xbd0cba7f	-0.034357544
193	0xbd8fb9f6	-0.07017891
194	0x3cca36d4	0.024684347
195	0x3d6929ba	0.05692456
196	0x3e124715	0.14284928
197	0xbcfc44ab	-0.030794462
198	0x3c2b2aad	0.010447186
199	0x3c09841f	0.0083933165
200	0x3cbc7129	0.023003178
201	0x3dafc73f	0.08582925
202	0xbd7cb297	-0.061693754
203	0xbdb15d84	-0.08660415
204	0x3ded9d48	0.11602265
205	0x3d9d490f	0.076799504
206	0x3dd1c37f	0.10242366
207	0xbd8ba93e	-0.0681939
208	0x3a6aa566	0.0008951038
209	0x3c541eb2	0.012946771
210	0x3c11177e	0.008855699
211	0x3ddc2832	0.10749854
212	0xbdd05963	-0.10173299
213	0x3d6e9f6a	0.058257498
214	0x3db7a4a9	0.08966953
215	0xbde21ef9	-0.11041064
216	0x3b0ffe67	0.0021971704
217	0xbdb99347	-0.09061294
218	0xbdacb7e5	-0.084335126
219	0xbc4b27f0	-0.012399659
220	0x3cbb291b	0.022846749
221	0x3d3691dc	0.044572696
222	0xbd09242e	-0.03348177
223	0x3c0ba220	0.00852254
224	0xbd54edd7	-0.051984634
225	0xbd8cd90a	-0.068773344
226	0xbd79d72b	-0.060996216
227	0xbc1578fc	-0.009123083
228	0x3dfd983b	0.12382551
229	0xbc94a13d	-0.01814329
230	0xba9f8452	-0.0012170172
231	0xbd4a2f97	-0.04936179
232	0x3c262911	0.010141627
233	0x3daf4606	0.08558278
234	0x3cad3e51	0.021147879
235	0xbc2fbfa9	-0.010726848
236	0xbc5730bf	-0.013134181
237	0xbddb3319	-0.107031055
238	0x3d293053	0.04130585
239	0x3cf6b0fd	0.030113691
240	0xbc871f8a	-0.016494531
241	0xbcf97d8f	-0.030455379
242	0x3cd42092	0.025894437
243	0xbd8bb3db	-0.06821414
244	0x3db07279	0.08615584
245	0xbcdb422a	-0.026764948
246	0x3d360f7f	0.044448372
247	0x3cc61163	0.024178213
248	0xba9fae19	-0.0012182622
249	0xbc9f93d5	-0.019479671
250	0x3cd56c88	0.026052728
251	0xbdb595b4	-0.08866444
252	0x3d2d9368	0.042376906
253	0x3e02800b	0.12744157
254	0xbdec5b4a	-0.115408495
255	0x3e2d862a	0.16945711

base_model.model.transformer.h.0.attn.c_attn.lora_B.weight f4 [2304, 2]
0	0xbc52365d	-0.012830344
1	0x3c682d47	0.014170951
2	0x3d66a961	0.056313876
3	0x3d183f2d	0.037169624
4	0x3d503994	0.05083616
5	0xbde8153a	-0.11332174
6	0xbdcee018	-0.10101336
7	0x3d7e1df5	0.062040288
8	0x3d09ad97	0.033612814
9	0xbd77a555	-0.060460407
10	0x3e1ab15c	0.1510672
11	0x3d8d3a18	0.06895846
12	0x3d29b760	0.041434646
13	0x3e0e2b00	0.1388359
14	0x3bfffb73	0.0078119575
15	0x3ba2a926	0.0049640117
16	0x3de11cea	0.10991843
17	0xbdb600ad	-0.08886848
18	0xb9649c3c	-0.00021801976
19	0xbda5a8e5	-0.08088855
20	0x3de80b69	0.11330301
21	0x3c306df6	0.010768404
22	0x3d484827	0.048896935
23	0x3cc8cad1	0.024510773
24	0x3da11cdb	0.07866832
25	0xbd10d0d6	-0.03535541
26	0xbd67e38c	-0.05661349
27	0xbd19e0a6	-0.037567757
28	0xbe023e8d	-0.12719174
29	0xbde67927	-0.11253577
30	0x3da92a5f	0.08260035
31	0xbd7b18a7	-0.061302807
32	0xbce6dafe	-0.028180595
33	0x3949990a	0.00019225865
34	0xbc92ed41	-0.017935397
35	0x3dfc6e0f	0.123256795
36	0x3ccbc2ed	0.024873221
37	0x3bb3cee2	0.005487309
38	0x3dbb533b	0.09146734
39	0xbd459b11	-0.048243586
40	0x3d6b1063	0.057388674
41	0xbca99e2b	-0.020705303
42	0xbd97ed9d	-0.07418368
43	0x3cec2754	0.028827347
44	0xbe2bd590	-0.16780686
45	0xb9ad9f0f	-0.0003311564
46	0x3d7a7280	0.061144352
47	0xbdc3feba	-0.095700696
48	0xbbd1544c	-0.006388223
49	0x3d86797c	0.0656614
50	0x3d80a43c	0.06281325
51	0xbd87504d	-0.06607113
52	0x3df98596	0.121836826
53	0x3d923f05	0.07140926
54	0x3db0e611	0.08637632
55	0xbbca8dcd	-0.0061814548
56	0xbda7194e	-0.08159123
57	0x3bf94f9c	0.007608367
58	0xbd57fea2	-0.05273307
59	0xbd07fa21	-0.033197526
60	0xbdd8881c	-0.10572836
61	0xbd4bfba6	-0.049800538
62	0xbc80841e	-0.015687998
63	0xbde10881	-0.1098795
64	0xbdc38a1e	-0.09547828
65	0x3d604f1d	0.05476295
66	0x3d5ecfb6	0.054397307
67	0xbcda593d	-0.02665388
68	0x3de39978	0.11113256
69	0xbb9ee650	-0.0048492327
70	0x3d6edfa4	0.05831875
71	0x3e069435	0.13142474
72	0xbdc737cd	-0.0972744
73	0xbd862b73	-0.06551256
74	0x3da044da	0.078256324
75	0x3b66c471	0.0035212303
76	0x3e2306df	0.1592059
77	0xbd7d5c6e	-0.061855726
78	0xbd94aaff	-0.072591774
79	0x3da75ae9	0.081716366
80	0xbc39ff24	-0.011352334
81	0x3d47ffec	0.04882805
82	0x3d75937f	0.059955116
83	0xbc40162f	-0.011724039
84	0x3e2abf0e	0.16674444
85	0xbd148938	-0.036263674
86	0xbd877215	-0.06613556
87	0xbda0a86f	-0.07844626
88	0xbd02036d	-0.03174155
89	0x3d9369e3	0.07197931
90	0xbb5d9f58	-0.00338169
91	0xbd950a72	-0.07277383
92	0x3d6e529d	0.058184255
93	0xbc421d21	-0.011847765
94	0xbd8b1b63	-0.06792333
95	0x3d374ef5	0.044753034
96	0xbda19f94	-0.07891765
97	0xbdb77096	-0.08957021
98	0x3c4e39bd	0.012587008
99	0xbd4b7b04	-0.049677864
100	0x3daeff0b	0.08544739
101	0xbe1749e0	-0.14774275
102	0x3b32c9cb	0.0027280923
103	0x3d73aa13	0.059488367
104	0xbdd3ddb0	-0.10345018
105	0x3d8ce601	0.06879807
106	0xbd2ccb39	-0.042185996
107	0xbce7a7e2	-0.028278295
108	0xbbf5ceaf	-0.0075014452
109	0xbc7550f7	-0.014972917
110	0x3e029b34	0.12754518
111	0xbd0c4a23	-0.03425039
112	0x3cbc9b6e	0.023023333
113	0xbdd1e6c6	-0.10249095
114	0x3e04b954	0.12961322
115	0xbd906be5	-0.07051829
116	0xbd8a0e59	-0.06741018
117	0xbd59846e	-0.05310481
118	0x3dbb7382	0.09152891
119	0xbd88bdc9	-0.06676824
120	0xbe396a40	-0.18106937
121	0x3e08ed19	0.13371696
122	0xba7f2972	-0.0009733654
123	0xbd21b547	-0.03947952
124	0xbca052a2	-0.019570652
125	0x3dda7393	0.10666575
126	0xbe115c8d	-0.14195462
127	0xbd11d379	-0.035602067
128	0xbddf515c	-0.1090419
129	0xbcc6645a	-0.024217773
130	0xbdc557c3	-0.0963588
131	0x3c956792	0.018237863
132	0xba363268	-0.000695026
133	0x3d0349e4	0.03205289
134	0x3cde77f1	0.027156802
135	0xbd8414ca	-0.06449278
136	0x3cfe72cf	0.031060604
137	0xbc443fc3	-0.011978093
138	0xbd306557	-0.043065395
139	0x3df42e44	0.11922887
140	0xbdf20569	-0.11817438
141	0x3e15d689	0.1463262
142	0x3d9c2b1b	0.07625409
143	0x3e0d4ab4	0.13798028
144	0xbd5f4774	-0.054511502
145	0xbd1d9d1b	-0.038479906
146	0x3e346d48	0.17619812
147	0xbc825a30	-0.015912145
148	0x3da08bec	0.07839188
149	0xbd993ae5	-0.07481936
150	0xbcafad49	-0.021444933
151	0x3d33452b	0.043767136
152	0x3e57a827	0.21060239
153	0xbe075c84	-0.13218886
154	0x3d8e0eff	0.06936454
155	0xbc4aa717	-0.012368939
156	0xbcc7a4a2	-0.024370495
157	0x3cb5906c	0.022163592
158	0xbe2e4228	-0.17017424
159	0x3dee74a5	0.11643342
160	0xbdd9930b	-0.10623749
161	0x3c09a636	0.008401444
162	0x3d1ee5e3	0.038793456
163	0x3dc25085	0.09488014
164	0x3e398bd5	0.18119748
165	0xbdd4cbf4	-0.103904635
166	0x3e04ab9b	0.12956087
167	0xbcea9d76	-0.028639536
168	0x3dc856c5	0.09782175
169	0xbd84ba55	-0.064808525
170	0xbd27c461	-0.040958766
171	0xbd252ff9	-0.040328953
172	0xbd4cbf12	-0.049986906
173	0x3cd6679e	0.026172455
174	0xbdefbec2	-0.11706306
175	0xbda83b4a	-0.082144335
176	0x3cb8b283	0.022546059
177	0xbc52e715	-0.012872477
178	0xbe1c78fe	-0.1528053
179	0x3dd206b4	0.10255185
180	0x3d1e93c3	0.038715135
181	0x3d983538	0.07432026
182	0xbd7ce131	-0.061738197
183	0x3cce3900	0.025173664
184	0x3dd41bab	0.1035684
185	0x3d08009b	0.033203702
186	0x3d943426	0.07236509
187	0xbdaf85e8	-0.085704625
188	0x3d97fd83	0.074214004
189	0xbd8abd50	-0.0677439
190	0x3e2714bd	0.16316505
191	0xbcffa395	-0.031205932
192	0x3c94d728	0.018169
193	0xbd561ba9	-0.052272473
194	0xbc7032a8	-0.014660515
195	0x3d8f9561	0.07010914
196	0x3d9f6604	0.0778313
197	0xbd79538e	-0.0608707
198	0x3da7cd32	0.08193435
199	0xbd081d78	-0.03323123
200	0x3cbff119	0.023430394
201	0xbd936ee3	-0.07198884
202	0x3d7b9f93	0.06143148
203	0xbcad72cb	-0.021172902
204	0xbe5ad9fb	-0.21372215
205	0xbcc132aa	-0.023583729
206	0xbdd09f86	-0.10186677
207	0x3da58c5a	0.080834106
208	0xbd7c4e2f	-0.061598
209	0xbd858882	-0.065201774
210	0xbc06a1d0	-0.00821729
211	0xbd0f7139	-0.035020087
212	0x3c6291ee	0.013828738
213	0x3d4d372f	0.050101455
214	0x3e9418db	0.28925213
215	0xbe01c9dc	-0.1267466
216	0x3d6dd994	0.058068827
217	0xbd36e3f1	-0.044650976
218	0x3e04746d	0.12935038
219	0xbd4a974e	-0.0494607
220	0x3de5b7f1	0.11216725
221	0xbda22c90	-0.07918656
222	0x3d0b4c2f	0.0340082
223	0xbe07afe1	-0.13250686
224	0x3d105d0c	0.035244986
225	0x3dccde70	0.10003364
226	0xbd10d72e	-0.03536146
227	0x3dacd427	0.08438902
228	0x3da8bb36	0.08238833
229	0x3d91d9f4	0.071216494
230	0xbd956e32	-0.07296409
231	0x3d3802a8	0.04492441
232	0xbe0b8294	-0.1362403
233	0x3ccc15a2	0.02491266
234	0x3e5970a9	0.21234383
235	0x3ca205c4	0.01977814
236	0xbdf9c801	-0.12196351
237	0x3d64060f	0.05566984
238	0x3df9dd11	0.12200368
239	0xbc9140f6	-0.017731171
240	0x3d9bc7ed	0.07606492
241	0xbda22559	-0.0791728
242	0x3d7d8e2c	0.061903164
243	0xbd7f3d08	-0.062314063
244	0x3dc41c68	0.095757306
245	0xbd4a2315	-0.049349863
246	0xbd125ef9	-0.035735104
247	0x3db6d55a	0.08927412
248	0xbe244896	-0.16043314
249	0x3cfaceac	0.030616127
250	0x3d241bed	0.040065695
251	0x3d2192be	0.039446585
252	0xbdcdb9eb	-0.10045227
253	0x3d589b3a	0.05288241
254	0xbd999a87	-0.07500177
255	0xbe013b9d	-0.12620397

base_model.model.transformer.h.1.attn.c_attn.lora_A.weight f4 [2, 768]
0	0xbe0936a4	-0.1339975
1	0x3d0ff474	0.035145238
2	0xbd710bc7	-0.058849122
3	0xbbcedebd	-0.0063131736
4	0x3d90256e	0.07038389
5	0xbca18887	-0.019718422
6	0xba2e773c	-0.00066553405
7	0x3cb0d06a	0.021583755
8	0x3ce1929f	0.027535735
9	0xbd7e3f02	-0.062071808
10	0xbe1b1ce4	-0.1514774
11	0x3c55a332	0.013039397
12	0xbe01a828	-0.12661803
13	0x3a520572	0.00080116757
14	0xbdd4c652	-0.10389389
15	0x3c0d24a7	0.008614696
16	0xbd4e5d27	-0.050381806
17	0x3c169c3f	0.009192525
18	0xbd8fed36	-0.07027666
19	0xbc3a11fa	-0.011356825
20	0x3c1d4cea	0.009600857
21	0x3dba7387	0.09104066
22	0xbd271321	-0.040789727
23	0xbc2b6685	-0.010461454
24	0xbba79642	-0.0051143477
25	0xbd8fb108	-0.07016188
26	0x3cad0c52	0.021124039
27	0xbe145b5b	-0.14487974
28	0xbda077fc	-0.07835385
29	0xba4aa851	-0.00077307696
30	0x3d6a3cd5	0.05718692
31	0x3dae3247	0.085056834
32	0x3d1c8a3b	0.038217764
33	0xbd03362b	-0.03203408
34	0xbdba3495	-0.090920605
35	0xbd7f3ff2	-0.062316842
36	0xba969f7d	-0.0011491623
37	0xbd02acaf	-0.031902965
38	0x3d8d2d7c	0.06893441
39	0xbd031c62	-0.03200949
40	0x3c818d8d	0.015814567
41	0x3e32bb74	0.1745432
42	0xbcd0559e	-0.02543145
43	0xbd21cd66	-0.039502524
44	0xbdc9a132	-0.09845199
45	0xbca3d460	-0.01999873
46	0x3d124863	0.035713565
47	0xbd8e6ef6	-0.06954758
48	0xbe239d21	-0.15977909
49	0xbd7f270a	-0.06229309
50	0x3df8a961	0.121416815
51	0x3d09005d	0.033447612
52	0xbccdd718	-0.025126979
53	0xbdf7be9c	-0.12096903
54	0xbdd75a8e	-0.10515319
55	0x3c81756e	0.015803065
56	0x3e046d40	0.129323
57	0x3cef3360	0.029199302
58	0xbc63dbae	-0.013907356
59	0xbc4285dd	-0.011872736
60	0x3d729f40	0.059233904
61	0xbcd26b5d	-0.02568596
62	0xbda0e9e6	-0.078571126
63	0xbe26dd4a	-0.16295353
64	0x3b14e991	0.0022722224
65	0x3b137877	0.0022502223
66	0xbc059370	-0.008152828
67	0xbd56cc1b	-0.052440744
68	0xbd4c82cb	-0.04992942
69	0x3d2a1fec	0.04153435
70	0x3a3da1f2	0.00072339096
71	0x37e9a2a4	2.78515e-05
72	0xbc935085	-0.01798273
73	0xbd1cd7d0	-0.038291752
74	0xbcd0cd59	-0.025488542
75	0x3dc4ba12	0.096058026
76	0x3c952c07	0.01820947
77	0x3ce21e9e	0.02760249
78	0xbd9a214f	-0.07525884
79	0xbdafe878	-0.08589262
80	0xbd66b825	-0.056327958
81	0xbd35d2e8	-0.04439059
82	0xbd94918d	-0.07254324
83	0xbd19af96	-0.037520967
84	0xbd91953c	-0.07108542
85	0xbcc247b0	-0.023715824
86	0xbd9c6e61	-0.076382406
87	0xbd646dff	-0.055768963
88	0x3e01ea9e	0.12687156
89	0x3cf83c18	0.030302092
90	0xbbb98f66	-0.0056628464
91	0x3d2950e2	0.0413369
92	0x3e15e595	0.1463836
93	0x3c8c9a85	0.017163524
94	0x3d978898	0.073991
95	0x3bc21af5	0.0059236237
96	0x3dc674a2	0.09690215
97	0x3c3e13cc	0.0116014
98	0x3ca49df8	0.020094857
99	0xbd2d596c	-0.042321607
100	0xbdf8415c	-0.12121841
101	0xbc210d20	-0.009829789
102	0x3c3c6b90	0.011500254
103	0x3c98f9aa	0.018673737
104	0xbcd333e3	-0.025781577
105	0x3d8a39c1	0.06749297
106	0x3d5f17b7	0.054465976
107	0x3c42401c	0.011856105
108	0x3df58576	0.11988346
109	0x3c2060df	0.009788721
110	0xbd7db2eb	-0.061938208
111	0xbdabf792	-0.0839683
112	0xbd2f33ff	-0.042774197
113	0xbd00abe7	-0.03141394
114	0xbcfa0035	-0.030517677
115	0xbc9a1a9e	-0.01881152
116	0x3d9fba7b	0.0779924
117	0x3c82f2c2	0.015984897
118	0xbdb6bc8f	-0.089226834
119	0x3c968aea	0.018376786
120	0x3d85701c	0.06515524
121	0xbe209f93	-0.15685873
122	0x3d4d462d	0.050115753
123	0x3dfa30df	0.12216353
124	0x3c1b466c	0.009477239
125	0x3d7dce20	0.061964154
126	0x3c507f33	0.012725639
127	0x3c897302	0.016778473
128	0x3d23636b	0.039889734
129	0x3dbc2b3e	0.09187935
130	0x3d0b3a6e	0.03399127
131	0x3d0ee456	0.034885727
132	0xbd8606f9	-0.06544299
133	0x3c2fdbb8	0.010733537
134	0x3d8a153c	0.067423314
135	0xba8053b7	-0.0009790574
136	0x3d9bd303	0.07608607
137	0xbd568998	-0.052377313
138	0xbca4a91b	-0.020100167
139	0xbcb8286f	-0.022480218
140	0x3da0cba3	0.078513406
141	0xbb264256	-0.002536913
142	0x3df233ab	0.11826261
143	0xbd1f3266	-0.038866423
144	0xbd5abd86	-0.0534034
145	0xbe0b5cd6	-0.13609633
146	0xbde6d0d6	-0.11270301
147	0xbe5e08d4	-0.21683055
148	0x3e1ba481	0.15199472
149	0xbe333906	-0.17502221
150	0x3b41f1b7	0.0029593536
151	0xbdbebe75	-0.093136705
152	0xbdbe86c2	-0.09303047
153	0x3db18d11	0.086694844
154	0x3d62d9a5	0.055383343
155	0xbd2c444c	-0.04205732
156	0x3d3cfdc0	0.046140432
157	0xbd2853c5	-0.041095514
158	0xbd39acff	-0.045330998
159	0x3e11b899	0.14230575
160	0x3c132ee0	0.008983344
161	0xbe1b074c	-0.15139502
162	0xbc072ec5	-0.008250897
163	0x3d9b7742	0.07591106
164	0x3cb03bbe	0.021512862
165	0xbdfdfad7	-0.124013595
166	0x3cd85bc4	0.026410945
167	0x3d4d6dff	0.05015373
168	0xbd998f16	-0.074979946
169	0xbb8fe0da	-0.004390818
170	0xbd26f604	-0.040761963
171	0xbd468f0b	-0.04847626
172	0x3cbb34df	0.02285236
173	0x3b5d4569	0.0033763296
174	0xbb67e65f	-0.0035385115
175	0xbd163894	-0.03667505
176	0xbcdc65c5	-0.026903996
177	0xbcfc8739	-0.030826198
178	0x3ccf690a	0.025318641
179	0x3d26d41e	0.040729634
180	0x3e24be6f	0.1608827
181	0xbd143e31	-0.036192123
182	0x3d8b7a36	0.06810419
183	0x3dbc1821	0.0918429
184	0x3d5874b5	0.052845675
185	0xbca99a58	-0.02070348
186	0x3d2058c5	0.039147157
187	0x3dea663b	0.1144528
188	0xbc5be626	-0.013421571
189	0xbce040a2	-0.02737457
190	0xbd6188cc	-0.0550621
191	0xbd9fbfa9	-0.07800228
192	0x3dd8861a	0.10572453
193	0x3d179bac	0.037013695
194	0xbd6add18	-0.057339758
195	0xbe13118b	-0.14362161
196	0x3d938139	0.07202382
197	0x3d4b0aa8	0.04957071
198	0xbe0ced83	-0.13762479
199	0xbccb2380	-0.024797201
200	0xbcaed029	-0.021339493
201	0xbe6288f2	-0.22122553
202	0xbd1666d2	-0.03671915
203	0x3bab69ac	0.005231103
204	0x38426758	4.634945e-05
205	0x3d9f4735	0.077772535
206	0xbce61a8a	-0.028088827
207	0x3d941e55	0.07232348
208	0xbdd12f8b	-0.10214146
209	0x3ccef200	0.025261879
210	0x3dc7c359	0.097540565
211	0xbd8f0a40	-0.06984377
212	0x3d89430b	0.067022406
213	0x3d533cd5	0.051571686
214	0xbddda484	-0.108223945
215	0x3cfc2ea8	0.030783966
216	0x3d612558	0.054967254
217	0xbd05f484	-0.03270389
218	0x3c8c8625	0.017153809
219	0x3c0b50bc	0.008503135
220	0xbd3d6a7f	-0.04624414
221	0x3c4daf56	0.01255401
222	0x3dd1fcbc	0.102532834
223	0xbd1c12d1	-0.038103882
224	0x3c86566d	0.016398633
225	0x3d38c2d6	0.045107685
226	0xbdee122f	-0.11624562
227	0xbbc50707	-0.0060128006
228	0xbdca592b	-0.09880289
229	0x3bcbcfe2	0.00621985
230	0xbd30b385	-0.043139953
231	0xbc169355	-0.0091904
232	0xbdd829dc	-0.10554859
233	0xbd8bb854	-0.06822267
234	0x3db57c0c	0.08861551
235	0xbd3ef2c9	-0.046618257
236	0xbd663b27	-0.056208756
237	0xbcd0508a	-0.025429029
238	0x3ca13d21	0.019682469
239	0x3de1789d	0.11009333
240	0xbdcd2751	-0.10017265
241	0x3c584915	0.013201018
242	0xbd144e3c	-0.036207423
243	0x3e04f558	0.12984216
244	0xbd444269	-0.047914896
245	0xbe1ebff9	-0.1550292
246	0xbcd93db8	-0.026518688
247	0x3d141d4b	0.03616075
248	0x3da7db4d	0.08196125
249	0x3cfebea7	0.03109677
250	0x3a346bf4	0.00068825413
251	0xbe032bf3	-0.12809734
252	0xbce8708c	-0.028373979
253	0x3dca5225	0.09878949
254	0x3d85cf85	0.06533722
255	0x3cd343f7	0.025789244

base_model.model.transformer.h.1.attn.c_attn.lora_B.weight f4 [2304, 2]
0	0x3ddc9d85	0.10772232
1	0xbd551a90	-0.052027285
2	0x3d56429a	0.05230961
3	0x3d10e4fa	0.03537462
4	0x3d40a68e	0.04703384
5	0x3d9a06fe	0.07520865
6	0x3c8cdc62	0.01719493
7	0x3d57d1c8	0.052690297
8	0x3d2e0dea	0.04249374
9	0x3ca0af3b	0.019614806
10	0xbdeac6ab	-0.11463674
11	0xbd85502b	-0.065094315
12	0x3b27d5f4	0.0025609704
13	0xbcc4f50e	-0.024042632
14	0x3da599bd	0.08085964
15	0xbd27f32e	-0.0410034
16	0xbe075152	-0.13214615
17	0xbca5de5f	-0.020247636
18	0xbbe7f041	-0.007078201
19	0xbcdd6a5e	-0.027028259
20	0x3df36eea	0.118863896
21	0x3e0e76e7	0.13912545
22	0x3c3376e8	0.010953642
23	0xbdc11679	-0.094281144
24	0x3cd9b85f	0.026577173
25	0xbd2c2f1f	-0.042037126
26	0xbe183a79	-0.14866056
27	0xbd4c1ffb	-0.049835186
28	0x3b9604eb	0.004578223
29	0x3cb5cb3c	0.022191636
30	0xbd260386	-0.040530704
31	0xbcd25a8e	-0.025677945
32	0xbdc2706e	-0.094941005
33	0xbc6f2558	-0.014596306
34	0x3d28af15	0.041182596
35	0xbceb6b7c	-0.028737776
36	0x37ba177f	2.2183869e-05
37	0x3d9d0909	0.07667739
38	0x3c95b9c5	0.018277058
39	0x3d489ffd	0.0489807
40	0x3e0f61fb	0.1400222
41	0x3c12ef7b	0.008968229
42	0xbddcc2b1	-0.10779322
43	0xbe08d5a2	-0.13362744
44	0xbdb2159e	-0.086955294
45	0xbdc7ee3b	-0.09762236
46	0x3d9b47dd	0.07582066
47	0x3da57ca6	0.080804154
48	0xbc68baf5	-0.01420473
49	0x3d5c1239	0.053728316
50	0xbc863758	-0.016383812
51	0x3e246b24	0.16056496
52	0xbcffadab	-0.031210741
53	0xbda0cc9e	-0.07851528
54	0xbd598095	-0.05310114
55	0x3d01e6d8	0.03171429
56	0xb9aa9af8	-0.00032540387
57	0x3c857102	0.016289238
58	0xbbdedcf1	-0.0068012406
59	0xbdad809f	-0.08471798
60	0x3cd39408	0.025827423
61	0x3b0c54ad	0.0021412775
62	0xbcd706e9	-0.026248412
63	0x3d2ef631	0.042715255
64	0xbdc201e7	-0.09473019
65	0xbe267a4a	-0.16257587
66	0xbdc9148f	-0.09818374
67	0xbe192478	-0.14955318
68	0x3dc639bb	0.0967898
69	0x3cc5a29a	0.024125386
70	0x3d4b8b4d	0.049693394
71	0xbd0722fb	-0.032992344
72	0xbd303647	-0.043020513
73	0xbb773842	-0.0037722741
74	0x3bc2645d	0.0059323744
75	0x3da32fba	0.079680875
76	0x3cc2562e	0.023722734
77	0xbd5fabb3	-0.054607105
78	0xbc28e896	-0.010309359
79	0xbda649b3	-0.08119526
80	0x3cbd0c1d	0.023077065
81	0x3da69893	0.0813457
82	0x3b1af48d	0.0023644299
83	0x3c70cf98	0.014697932
84	0xbda6755f	-0.081278555
85	0xbd284b3d	-0.041087378
86	0xbd70d136	-0.05879327
87	0xbd99133a	-0.0747437
88	0xbcd472b6	-0.025933605
89	0xbc0f1799	-0.008733653
90	0xbd91b02a	-0.07113679
91	0xbdab087b	-0.08351227
92	0x3de564b0	0.11200845
93	0x3da0a24c	0.07843456
94	0x3c3b6f06	0.011440044
95	0xbd7fcae1	-0.06244934
96	0xbc5ea537	-0.013589195
97	0x3d44cef4	0.04804893
98	0xbc4a5f4b	-0.012351821
99	0xbd993bec	-0.07482132
100	0x3b216fa4	0.0024633193
101	0x3d5e19a8	0.054223686
102	0x3db7ca8f	0.08974182
103	0x3df28d72	0.11843385
104	0x3cf1ce1a	0.029517222
105	0xb9beb0b7	-0.00036371287
106	0xbb9791be	-0.004625528
107	0xbdc74a86	-0.09731011
108	0x3a59eef0	0.00083134975
109	0xbc1b0c92	-0.009463446
110	0xbe34fa40	-0.17673588
111	0xbe03217b	-0.1280574
112	0x3d882ce1	0.06649185
113	0x3d87436a	0.06604655
114	0xbcd87018	-0.026420638
115	0x3c4a55cd	0.012349558
116	0xbcb28b4b	-0.021794936
117	0xbd257c63	-0.040401828
118	0xbd3150be	-0.043289892
119	0xbdcd5a80	-0.10027027
120	0x3cf010a9	0.02930482
121	0x3d5a86bd	0.053351153
122	0xbdca4656	-0.09876697
123	0x3ce08b75	0.027410248
124	0xbd6f3aa9	-0.058405552
125	0xbd52525c	-0.051348075
126	0x3da4a503	0.08039286
127	0x3e4a38ac	0.19748181
128	0xbd5af6ea	-0.05345813
129	0xbd3d741c	-0.04625331
130	0xbc628a5d	-0.013826934
131	0xbdf2d1e4	-0.1185644
132	0x3df999c8	0.121875346
133	0x3da0766e	0.07835089
134	0xbe230e83	-0.15923505
135	0xbe528242	-0.20557502
136	0xbbe37a96	-0.0069421036
137	0x3dbb31a1	0.09140325
138	0x3d05b92a	0.03264729
139	0xbd2d0537	-0.0422413
140	0xbd3b3c4b	-0.045711797
141	0xbe06706b	-0.13128822
142	0xbcc30823	-0.02380759
143	0x3d322e30	0.04350108
144	0xbe252a20	-0.1612935
145	0xbdf0fe55	-0.1176726
146	0xbcfc07ee	-0.0307655
147	0xbdc593af	-0.09647309
148	0x3ab09ee6	0.001347509
149	0x3d13b3c9	0.03606013
150	0xbd6983fc	-0.057010636
151	0xbcb30dc6	-0.021857154
152	0x3dc29a2a	0.09502061
153	0x3e3a91c2	0.18219665
154	0xbd161ebd	-0.036650408
155	0x3c964967	0.018345548
156	0x3da0219b	0.0781891
157	0x3e2ec14d	0.17065926
158	0xbc568a43	-0.013094488
159	0xbd806279	-0.06268782
160	0x3dc62fb9	0.09677071
161	0x3e4aae83	0.19793133
162	0x3cad75b4	0.02117429
163	0x3dabb641	0.083843715
164	0xbd35fd63	-0.0444311
165	0xbe02795c	-0.12741607
166	0xbb8767d3	-0.00413225
167	0xbce1b2f3	-0.02755115
168	0xbd46c5a7	-0.04852834
169	0xbc6c7821	-0.014432938
170	0xbc508de5	-0.012729143
171	0xbdaf15a6	-0.08549051
172	0xbcc69110	-0.024239093
173	0xbd2007a1	-0.039069775
174	0xbd54f9aa	-0.05199591
175	0xbe0d537f	-0.13801382
176	0x3d07b1ca	0.033128537
177	0xbd0bf5fd	-0.03417014
178	0xbb33ff60	-0.0027465448
179	0xbda5185c	-0.08061287
180	0x3d18a16e	0.037263326
181	0xbd4d8f69	-0.050185595
182	0xbbc6b106	-0.0060635833
183	0x3e255c0a	0.16148391
184	0xbc1a55e4	-0.009419892
185	0x3b5890d9	0.003304532
186	0x3b91f619	0.004454386
187	0x3d788f20	0.06068337
188	0xbcd12c84	-0.025533922
189	0xbe02acc5	-0.12761219
190	0x3e0f07c4	0.13967806
191	0x3db619f9	0.08891673
192	0x3d484d63	0.048901927
193	0xbcae12e0	-0.021249235
194	0xbd292ec0	-0.04130435
195	0xbdcdd966	-0.10051231
196	0xbdaef081	-0.08541966
197	0xbde7139b	-0.11283036
198	0xbd35505c	-0.04426609
199	0xbd98cd6f	-0.07461058
200	0x3da66c3a	0.08126111
201	0x3dc646f1	0.096815
202	0x3e0eb962	0.13937905
203	0x3e405d46	0.18785581
204	0x3d90cac6	0.07069926
205	0xbcd92581	-0.026507141
206	0x3d7a6d32	0.061139293
207	0x3d75b8b0	0.059990585
208	0xbb771f63	-0.0037707917
209	0x3dad81b8	0.084720075
210	0x3c36517b	0.011127825
211	0x3e1c5f9b	0.15270846
212	0xbb33b212	-0.002741937
213	0xbc61d002	-0.013782503
214	0xbd9fc84c	-0.078018755
215	0xbe1d20bb	-0.15344517
216	0xbdbe24ce	-0.09284364
217	0xbcd3dba9	-0.025861578
218	0xbd9bcfd7	-0.07608002
219	0xbe0fb13b	-0.14032452
220	0xbb2d9627	-0.0026487203
221	0x3cff5433	0.031168079
222	0xbc377560	-0.011197418
223	0x3d679daf	0.056546863
224	0xbc28abf5	-0.010294904
225	0xbcd9f67c	-0.02660679
226	0xbd0f1357	-0.034930553
227	0xbdd2f0b4	-0.10299817
228	0xbbafd9a3	-0.0053665205
229	0x3dddc32b	0.10828241
230	0xbda88d3a	-0.08230062
231	0x3df24f39	0.11831517
232	0xbd935e82	-0.0719576
233	0xbd6d6c76	-0.057964765
234	0x3ced0f9c	0.028938107
235	0xbdff9c96	-0.12481038
236	0x3d862d6a	0.06551631
237	0x3dca093d	0.09865043
238	0xbc791391	-0.015202419
239	0xbccc1503	-0.024912363
240	0xbd395524	-0.045247212
241	0xbe0a50c9	-0.1350738
242	0xbd575dde	-0.052579753
243	0x3d5790d2	0.052628346
244	0xbd4574ba	-0.048207022
245	0xbdd86f9b	-0.10568162
246	0x3dcd0669	0.10010988
247	0x3c949e8c	0.018142007
248	0xbdc0b0e0	-0.09408736
249	0xbda2be5f	-0.07946467
250	0xbd8f2751	-0.06989921
251	0x3d03d70f	0.032187518
252	0xbdbcc977	-0.09218114
253	0xbd77caf1	-0.060496274
254	0xbe3bd366	-0.18342361
255	0xbe1d0752	-0.15334824

base_model.model.transformer.h.10.attn.c_attn.lora_A.weight f4 [2, 768]
0	0xbd734522	-0.059392102
1	0xbbfd1c63	-0.007724331
2	0x3c90cfd4	0.017677225
3	0xbd28b3fb	-0.041187268
4	0xbd84b8a0	-0.06480527
5	0x3de1e6b1	0.11030329
6	0xbd05e286	-0.032686733
7	0x3dd8eccb	0.1059204
8	0xbd263c9b	-0.04058514
9	0x3ce0774d	0.027400637
10	0xbdc92990	-0.098223805
11	0x3c8a39d4	0.016873278
12	0xbde0c46b	-0.10974964
13	0x3d08660a	0.033300437
14	0xbc82737a	-0.015924204
15	0xbd1c5be6	-0.03817358
16	0xbdda3ef5	-0.10656539
17	0x3e1e5317	0.15461384
18	0xbda06bd5	-0.07833067
19	0x3dcec9c7	0.1009708
20	0x3ceef08f	0.029167442
21	0xbd31eeb7	-0.043440547
22	0x3c28fc5e	0.010314075
23	0xbdca927b	-0.0989122
24	0xbd589831	-0.052879516
25	0xbbb5f83d	-0.005553274
26	0x3dee2846	0.11628775
27	0xbc22abe9	-0.009928682
28	0xbd085e61	-0.03329313
29	0x3dc9fc45	0.0986257
30	0xbbe675ee	-0.0070331013
31	0xbc3f675c	-0.011682358
32	0x3d21b6a4	0.03948082
33	0xbd124dc8	-0.03571871
34	0xbcecc690	-0.028903276
35	0x3da1bcbf	0.078973286
36	0xbb0305a6	-0.001999238
37	0x3de47900	0.111558914
38	0x3d53c9ea	0.051706232
39	0xbbeac275	-0.0071642944
40	0x3df836d6	0.12119834
41	0xbd2af70e	-0.041739516
42	0xbbc7a708	-0.0060929097
43	0x3d16a7b7	0.03678104
44	0xbdd84857	-0.10560673
45	0xbd8fb54f	-0.07017004
46	0xbe07a035	-0.13244708
47	0xbd1bbbde	-0.03802096
48	0x3bbb390f	0.005713589
49	0xbdc9432d	-0.09827266
50	0xbe05056d	-0.12990351
51	0xbd2a7c3f	-0.041622397
52	0x3d16f10b	0.03685097
53	0x3ddc7538	0.10764545
54	0xbce64d17	-0.028112931
55	0xbc4610c4	-0.012088958
56	0x3d4196cf	0.047262963
57	0x3b336fcd	0.002737987
58	0x3d75f801	0.060050968
59	0x3d1c0b5a	0.038096763
60	0x3d54aa76	0.051920377
61	0x3d306344	0.043063417
62	0x3caede0e	0.021346118
63	0xbd6cbbde	-0.05779635
64	0xbbeefa4a	-0.0072930204
65	0x3e0b1d00	0.13585281
66	0xbcc7ba0b	-0.024380704
67	0xbdb77990	-0.08958733
68	0x3e33a805	0.17544563
69	0xbe0bb014	-0.13641387
70	0x3b8eff2c	0.004363915
71	0x3cd2d117	0.025734467
72	0xbda4b6b4	-0.0804266
73	0x3dd83ca4	0.10558441
74	0xba6d49c8	-0.0009051827
75	0x3d342fe9	0.043991003
76	0x3d641687	0.055685546
77	0xbced7711	-0.02898744
78	0x3d2d7a40	0.042352915
79	0x3d0bd56c	0.03413908
80	0xbd0b1c89	-0.03396276
81	0x3d1dc457	0.038517322
82	0xbdcab5a5	-0.09897927
83	0x3e2cab14	0.16862136
84	0xbd3116a2	-0.043234475
85	0x3d3ef0e2	0.046616443
86	0x3c0bb739	0.00852757
87	0xbd47a9dc	-0.048745975
88	0xbc51ddfb	-0.012809272
89	0xbc892004	-0.016738899
90	0x3d92da60	0.07170558
91	0xbd244b0c	-0.040110633
92	0x3bb54f42	0.00553313
93	0x3d65f8df	0.056145545
94	0x3d54e0e9	0.051972304
95	0x3d91e38d	0.0712348
96	0x3d64a422	0.05582059
97	0x3e1a4432	0.15065077
98	0xbc98f484	-0.018671282
99	0x3bcaf908	0.0061942376
100	0xbdc9719d	-0.09836123
101	0x3d9c988f	0.07646286
102	0x3c85274a	0.016254086
103	0x3c8d60e5	0.017258117
104	0x3c77bb87	0.015120394
105	0xbd69cd79	-0.05708072
106	0x3dcaca93	0.09901919
107	0x3dd4807a	0.103760675
108	0xbd3a34c8	-0.045460492
109	0x3c065a79	0.008200281
110	0x3ddd9d6c	0.108210415
111	0x3bdc45b6	0.0067221774
112	0xbda61af9	-0.081106134
113	0x3d05edb2	0.032697387
114	0x3deb0bad	0.11476836
115	0xbe2994c2	-0.16560653
116	0xbd3fe0e8	-0.046845347
117	0x3d1811a8	0.037126213
118	0xbd2c1500	-0.042012215
119	0xbccd1f7a	-0.025039423
120	0xbd7465a1	-0.059667233
121	0x3dff8de9	0.12478239
122	0xbe22a701	-0.1588402
123	0x3db5981e	0.08866905
124	0xbe008382	-0.12550166
125	0xbd96aafd	-0.07356832
126	0x3d36d76f	0.044639047
127	0x3df81889	0.12114055
128	0xbd68c4f2	-0.056828447
129	0x3dac07f8	0.083999574
130	0xbc765620	-0.015035182
131	0xbcd00080	-0.025390863
132	0x3cf2ae30	0.029624075
133	0x3de56a2a	0.1120189
134	0x3d0adec4	0.033903852
135	0x3c9ca365	0.019120881
136	0x3b149ff3	0.0022678345
137	0x3d5db177	0.05412432
138	0x3d5677f8	0.052360505
139	0x3c6e08cf	0.014528467
140	0x3e09e35a	0.13465634
141	0xbda333e9	-0.079688855
142	0x3d44ee4d	0.048078824
143	0xb9e856dc	-0.00044315204
144	0xbe09d006	-0.13458261
145	0xbc93ec94	-0.018057145
146	0xbc9053d9	-0.017618107
147	0xbc6ba81b	-0.014383341
148	0xbd83f8d8	-0.064439476
149	0xbe088b45	-0.13334377
150	0x3b552eb8	0.0032529067
151	0xbe33fd0b	-0.17576997
152	0xbba991e0	-0.0051748604
153	0xbd7fe533	-0.06247444
154	0x3cd239f1	0.025662394
155	0x3da50a97	0.080586605
156	0x3d6ba67b	0.057531815
157	0x3c396bb8	0.011317186
158	0x3cb4192e	0.021984663
159	0xbc879aa2	-0.016553227
160	0xbbcbee90	-0.006223507
161	0x3c5b869b	0.013398792
162	0xbcf2b7f1	-0.029628726
163	0xbd3686c6	-0.044562124
164	0x3dbf1547	0.0933023
165	0xbdd61217	-0.10452669
166	0x3dba242c	0.090889305
167	0xbc8618b5	-0.016369203
168	0xbc3ecafb	-0.011645074
169	0xbd3b32b1	-0.04570264
170	0xbd5b20de	-0.05349814
171	0x3dc31de7	0.09527188
172	0xbd3cb791	-0.0460735
173	0xbd209006	-0.03919985
174	0xbd02b1e5	-0.031907935
175	0x3e125f84	0.14294249
176	0xbbaad28d	-0.005213088
177	0x3da4f079	0.08053679
178	0x3dc1fdd2	0.094722405
179	0x3d85a84b	0.0652624
180	0x3d4fed49	0.050763402
181	0xbdc3884e	-0.095474824
182	0x3d101bb5	0.035182673
183	0xbd9c9932	-0.07646407
184	0xbd28ed47	-0.04124191
185	0xbe1e7757	-0.15475212
186	0xbdec15f1	-0.115276225
187	0xbc0f73d8	-0.008755647
188	0xbc00d550	-0.007863358
189	0xbc23a02c	-0.009986918
190	0x3e13cb1e	0.14432952
191	0x3d49d0c4	0.04927136
192	0x3cb2087a	0.021732558
193	0x3d687569	0.056752596
194	0xbd071016	-0.032974325
195	0xbd4cf1ef	-0.050035413
196	0x3d11d302	0.035601623
197	0xbdab7550	-0.08371985
198	0x3d8955c3	0.06705811
199	0x3d641deb	0.055692594
200	0xbd1229aa	-0.035684265
201	0xbbcd33ed	-0.0062622936
202	0x3ca3e234	0.020005323
203	0xbd5f5e61	-0.054533366
204	0x3b9faaff	0.0048726792
205	0x3d2d43a9	0.042300854
206	0x3e183d81	0.14867212
207	0x3c0723d6	0.00824829
208	0xbcf6c623	-0.030123776
209	0x3dca997f	0.09892558
210	0x3d75571b	0.059897523
211	0x3d348706	0.04407408
212	0x3e0f1fb6	0.1397694
213	0x3ce2208f	0.027603416
214	0x3dbf47ea	0.093398884
215	0x3e028025	0.12744196
216	0x3d468007	0.04846194
217	0xbdab1bd8	-0.0835492
218	0xbd03f9c8	-0.03222063
219	0xbd95b409	-0.073097296
220	0xbaba66e0	-0.0014221333
221	0xbe0a770c	-0.13521975
222	0xbda21f1a	-0.079160884
223	0x3d53e95a	0.051736213
224	0x3d3ed8ed	0.046593595
225	0x3db98585	0.0905867
226	0x3df418c3	0.119187854
227	0x3cde339b	0.027124217
228	0xbe2f1399	-0.1709732
229	0xbe027643	-0.12740426
230	0xbd7634ae	-0.060108833
231	0x3ba1a9e5	0.004933583
232	0xbda10e67	-0.07864075
233	0x3b0b6f48	0.0021276046
234	0x3e117e7b	0.14208405
235	0x3d351db7	0.04421779
236	0xbc45a76d	-0.012063843
237	0xbcecd291	-0.028909
238	0x3cafc9e7	0.02145858
239	0xbd9e8999	-0.077410884
240	0xbdc9cbf3	-0.09853353
241	0x3bf6016c	0.0075074937
242	0x3d839338	0.06424564
243	0x3d924556	0.07142131
244	0x3d1b50e5	0.037918944
245	0xbbfdd77d	-0.0077466355
246	0xbc949968	-0.018139556
247	0xbd44b506	-0.0480242
248	0x3db48ec1	0.08816291
249	0xbb9af190	-0.0047285035
250	0xbd721308	-0.05910018
251	0x3df12adc	0.11775753
252	0xbd7d99e6	-0.061914347
253	0xbcb8a20a	-0.022538204
254	0xbcc15d92	-0.023604188
255	0xbda31480	-0.079628944

base_model.model.transformer.h.10.attn.c_attn.lora_B.weight f4 [2304, 2]
0	0xbdc2b037	-0.095062666
1	0xbe0aa803	-0.13540654
2	0xbc47305f	-0.012157529
3	0xbe19b5c6	-0.15010747
4	0xbc17ea80	-0.009272218
5	0xbd06ba2b	-0.032892387
6	0x3d7bcc6a	0.06147424
7	0xbd2d658f	-0.042333182
8	0xbe2069d0	-0.15665364
9	0xbd909ce0	-0.070611715
10	0x3c196cc7	0.009364313
11	0xbdf4394f	-0.11924993
12	0x3c223388	0.009899981
13	0xbdf426b9	-0.11921448
14	0x3d9b3077	0.07577603
15	0xbd9ed330	-0.077551246
16	0x3dad68b1	0.08467234
17	0x3deea495	0.11652485
18	0x3d0b35f8	0.033987015
19	0x3cfd0725	0.030887196
20	0x3cfd4dd5	0.030920902
21	0x3da1db20	0.07903123
22	0x3d91709b	0.07101556
23	0xbbcb9265	-0.00621252
24	0x3c81deba	0.015853275
25	0xbdc85d98	-0.097834766
26	0xbd9feb0b	-0.07808503
27	0xbc5a6c07	-0.01333142
28	0xbcd7b660	-0.02633208
29	0xbd6275c9	-0.05528811
30	0xbccaaf00	-0.02474165
31	0xbcb48184	-0.022034414
32	0x3cb16443	0.021654254
33	0xbda488c8	-0.080339015
34	0x3cef604b	0.02922072
35	0x3c36c648	0.011155672
36	0x3da9d33c	0.08292243
37	0xbe2d16db	-0.1690325
38	0xbcdae951	-0.026722582
39	0xbce7b058	-0.02828233
40	0x3d85667b	0.06513687
41	0x3d81f30b	0.06345185
42	0x3da6dfd9	0.08148164
43	0x3e3464e7	0.17616616
44	0x3c698808	0.014253624
45	0x3d9a53bb	0.075355016
46	0xbbb02bcc	-0.0053763147
47	0x3d7804a5	0.060551304
48	0x3d78309f	0.060593244
49	0x3db1181a	0.08647175
50	0x3d32d551	0.043660466
51	0xbc8990e0	-0.016792715
52	0xbde4127a	-0.111363366
53	0xbdab70dc	-0.083711356
54	0xbd030190	-0.031983912
55	0xbe420ad3	-0.18949442
56	0x3d24f3fe	0.04027175
57	0xbe03489b	-0.12820666
58	0xbd3ff5ae	-0.046865158
59	0x3d8e48df	0.06947493
60	0xbc13d43a	-0.009022767
61	0x3e3787d2	0.17922905
62	0x3b868f61	0.0041064476
63	0x3e022a30	0.12711406
64	0x3db451c4	0.08804658
65	0x3dd4ad65	0.10384635
66	0xbd8c232d	-0.06842647
67	0xbd08ca1f	-0.033395883
68	0xbd25ea0b	-0.040506404
69	0xbc8b8974	-0.017033316
70	0x3c92bbb0	0.017911762
71	0x3b4098a3	0.0029387854
72	0x3e14b91f	0.14523743
73	0xbd6ecef3	-0.05830283
74	0xbd1eabfe	-0.038738243
75	0x3e0946c7	0.13405906
76	0xbd03e142	-0.032197244
77	0x3e25d510	0.16194558
78	0x3d71b2c4	0.059008375
79	0x3e39da5d	0.18149705
80	0x3c8aabd8	0.016927645
81	0xbe7e3c2e	-0.24827644
82	0x3d6d360b	0.057912868
83	0x3c95c003	0.018280035
84	0x3e0b7b1a	0.13621178
85	0x3cc1c80b	0.023654958
86	0x3d8c43d4	0.06848875
87	0x3c1e4656	0.009660324
88	0x3cfb48c2	0.030674342
89	0xbc9113f0	-0.017709702
90	0xbe2c2bd8	-0.168136
91	0xbe3814b0	-0.17976642
92	0xbd46cc28	-0.048534542
93	0xbc5208b4	-0.012819458
94	0xbd2c33ed	-0.042041708
95	0xbd9ad0a3	-0.075593255
96	0xbdd8d91b	-0.105882846
97	0xbe205a30	-0.15659404
98	0xbd14cc03	-0.036327373
99	0x3e394fda	0.18096867
100	0x3d4cdda9	0.05001608
101	0xbd4e0c0e	-0.050304465
102	0x3c05dc09	0.008170136
103	0x3e83a55c	0.25712097
104	0xbc25d804	-0.010122303
105	0x3dd56708	0.10420042
106	0xbd3f2d74	-0.046674207
107	0xbdcb75cc	-0.09934577
108	0x3d2fa8ab	0.042885464
109	0xbb512195	-0.0031910886
110	0xbe0e372b	-0.13888232
111	0xbe0128a4	-0.1261316
112	0xbdbfa21f	-0.09357094
113	0xbd6726b5	-0.0564334
114	0xbc54d5cb	-0.012990425
115	0xbe1ca6ea	-0.15298048
116	0x3dfc472b	0.12318262
117	0x3da73cdd	0.081659056
118	0x3d537bf5	0.051631887
119	0xbe0fd188	-0.14044774
120	0x3e0805e7	0.13283502
121	0x3e1308c8	0.14358819
122	0x3d85eb79	0.065390535
123	0x3d950e64	0.072781354
124	0xbdc0113c	-0.09378287
125	0x3d3d037c	0.0461459
126	0x3de5093a	0.111834005
127	0x3e57782d	0.21041937
128	0x3ccfa446	0.025346886
129	0xbc174986	-0.009233838
130	0xbd738cdd	-0.05946051
131	0xbccc023a	-0.024903405
132	0xbe0d7210	-0.13813043
133	0xbe0763fa	-0.13221732
134	0x3df0c858	0.117569625
135	0xbd9861c9	-0.07440526
136	0xbdfb7e22	-0.12279917
137	0x3c6f4f3f	0.014606296
138	0x3c93c13b	0.018036475
139	0xbc536cbb	-0.012904341
140	0x3ddf8c60	0.10915446
141	0xbceb91fe	-0.028756138
142	0xbd51097b	-0.051034432
143	0xbc60b9d6	-0.013716182
144	0xbc07c27b	-0.008286114
145	0xbd53f03e	-0.051742785
146	0x3bfef75d	0.007780953
147	0xbda84844	-0.082169086
148	0xbcae6fca	-0.02129354
149	0x3df54494	0.11975971
150	0xbaebaf5d	-0.001798134
151	0x3d1a9119	0.037736032
152	0x3cd7b28d	0.026330257
153	0x3dd6aa0e	0.10481654
154	0x3d333ff9	0.04376218
155	0xbdb9acc0	-0.090661526
156	0x3bdff7a2	0.00683494
157	0xbc9073b4	-0.017633297
158	0x3ca0f629	0.019648628
159	0x3cf7b31a	0.03023677
160	0xbdaca283	-0.08429434
161	0xbb61c41d	-0.0034449168
162	0x3dc05bb0	0.09392488
163	0xbc7273df	-0.014798134
164	0xbd116e4d	-0.03550558
165	0xbd7037c6	-0.05864694
166	0x3dcf00bf	0.10107564
167	0x3ca79eec	0.020461522
168	0xbd5e84ad	-0.05432575
169	0x3c691bd1	0.014227823
170	0xbd654ae6	-0.05597963
171	0xbcf90318	-0.030396983
172	0xbc37f685	-0.011228208
173	0xbd086ccd	-0.033306886
174	0x3d07ee51	0.03318626
175	0xbd2fe12f	-0.04293936
176	0xbd732118	-0.059357733
177	0xbd602fba	-0.054733016
178	0xbddf6611	-0.109081395
179	0x3d44949d	0.04799329
180	0x3a8ef44c	0.0010906546
181	0x3e39cb7d	0.18144031
182	0x3cb84a4f	0.02249637
183	0xbc4119e9	-0.011785963
184	0xbd94672f	-0.07246243
185	0xbd5a6eed	-0.053328443
186	0x3dd24c26	0.102684304
187	0xbc38588d	-0.011251581
188	0xbdfa31ac	-0.122165054
189	0xbdd009ee	-0.10158144
190	0x3dbe6898	0.092972934
191	0x3dbec40a	0.09314735
192	0xbdb71175	-0.089388765
193	0x3de0ba8d	0.10973082
194	0x3dd80ffd	0.105499245
195	0xbe11b009	-0.14227308
196	0xbc898827	-0.016788555
197	0x3df7d8a8	0.12101871
198	0xbd777554	-0.060414627
199	0xbd171320	-0.036883473
200	0xbd40facb	-0.047114175
201	0xbde4403b	-0.111450635
202	0xbd1ae23a	-0.037813403
203	0xbd845276	-0.06461041
204	0x3e00c953	0.12576799
205	0xbe00176e	-0.12508938
206	0x3d324c2f	0.043529686
207	0xbcc03ba0	-0.023465931
208	0x3d46f447	0.048572805
209	0x3b600bcd	0.0034186721
210	0x3d89af41	0.0672288
211	0x3d9bcec6	0.07607798
212	0xbd2fcba2	-0.04291881
213	0xbd14ece9	-0.036358748
214	0xbc978457	-0.018495722
215	0x3b54a396	0.0032446138
216	0x3d140dae	0.03614586
217	0xbe03d8b1	-0.1287563
218	0xbd30ee7c	-0.043196186
219	0xbd720d80	-0.059094906
220	0x3d8d1c70	0.0689019
221	0x3e191ac0	0.1495161
222	0x3da596a6	0.080853745
223	0x3d52db61	0.051478747
224	0xbd861b95	-0.065482296
225	0x3dbb683b	0.0915074
226	0xbdc067a0	-0.09394765
227	0xbc9b6f54	-0.018973984
228	0xbd4982df	-0.049197074
229	0xbd8edc91	-0.069756635
230	0x3d8cce9b	0.06875344
231	0x3dbca6c1	0.09211493
232	0x3d49c6eb	0.04926197
233	0x3e06c69d	0.13161702
234	0xbdba24b6	-0.09089033
235	0xbd0a5d96	-0.033780657
236	0x3d2a2792	0.041541643
237	0x3dac1997	0.084033184
238	0xbcdb4ffc	-0.026771538
239	0xbbad3388	-0.005285684
240	0xbc32e2bc	-0.0109183155
241	0xbdd839c6	-0.105578944
242	0xbdb54b81	-0.08852292
243	0x3da4de48	0.08050209
244	0x3ca6cfa6	0.020362686
245	0x3d4c3258	0.0498527
246	0x3d234eb3	0.039869975
247	0x3db7dd74	0.08977786
248	0xbe215bdb	-0.15757696
249	0xbcdfdb42	-0.02732623
250	0x3c67ae16	0.014140626
251	0x3ddb70c9	0.107148714
252	0xbdf29f5d	-0.118468024
253	0xbc1b5e9d	-0.009483007
254	0xbd4cfed7	-0.05004772
255	0x3db07889	0.0861674
